models/modelo_afib.tflite (tflite, 13832 bytes, 5 tensors)

arith.constant f4 [1, 32]
0	0xbcdbc652	-0.026827965
1	0xbea104c5	-0.3144895
2	0xbe2b2dab	-0.1671664
3	0x3e969d77	0.2941701
4	0xbd2bc2ab	-0.041933697
5	0xbd63b5ad	-0.05559318
6	0xbd870530	-0.06592786
7	0xbebaa3c5	-0.3645307
8	0x3e489a68	0.19590151
9	0x3c16f802	0.009214403
10	0x3e7012d5	0.23444684
11	0x3d9cf4dc	0.07663891
12	0x3ebb5dae	0.3659491
13	0x3ebf93a8	0.3741734
14	0xbe97ae38	-0.29625106
15	0xbed055a1	-0.4069033
16	0x3c6d78a6	0.014494097
17	0x3e22f517	0.15913807
18	0xbe2ab421	-0.16670276
19	0x3e0bbf70	0.13647246
20	0xbe9665c9	-0.2937453
21	0x3e2ac733	0.16677551
22	0xbe869541	-0.26285747
23	0x3e19e51a	0.15028802
24	0x3dd3a928	0.10334998
25	0xbea783b7	-0.32717678
26	0x3dd00278	0.10156721
27	0x3e973745	0.29534355
28	0xbed2bb3c	-0.41158473
29	0x3cc38a16	0.023869555
30	0xbdbc64b2	-0.091988936
31	0xbe19bd73	-0.15013675

arith.constant1 f4 [32, 64]
0	0x3e87699f	0.2644777
1	0xbcc70b78	-0.02429746
2	0xbe344728	-0.17605269
3	0x3d9c8857	0.07643192
4	0xbce3fb57	-0.02782981
5	0x3e4f2f68	0.20232928
6	0x3e81a44e	0.25320667
7	0xbdfe3bed	-0.12413774
8	0xbd9943aa	-0.07483609
9	0x3e3d20a3	0.18469481
10	0x3dcdb03c	0.1004338
11	0xbd0f1d58	-0.034940094
12	0xbe0bc401	-0.13648988
13	0xbd3c791a	-0.04601393
14	0x3e523f39	0.2053193
15	0x3e652912	0.22378948
16	0xbe2eceb0	-0.17071033
17	0x3ce22c36	0.027608972
18	0x3e7afdfb	0.24510948
19	0x3d09bdf9	0.033628438
20	0xbdfe73df	-0.124244444
21	0x3e5566a4	0.20839936
22	0x3e8270d5	0.2547671
23	0xbe5344d6	-0.20631728
24	0x3e5f62a8	0.21814978
25	0x3e2dd142	0.16974357
26	0x3d54a238	0.051912516
27	0xbcd8ee45	-0.026480803
28	0xbc39a50b	-0.011330853
29	0xbd0de638	-0.03464338
30	0xbb9a63a0	-0.0047115833
31	0x3bc423b9	0.005985704
32	0xbe7f54b2	-0.24934652
33	0xbe39ad89	-0.18132605
34	0xbe36124d	-0.17780419
35	0x3db4005b	0.0878913
36	0x3e0c9e2b	0.13732211
37	0x3e257f62	0.16161874
38	0xbe4dbfb7	-0.20092665
39	0x3de9ec45	0.11422018
40	0xbd86bcdb	-0.0657899
41	0x3e12f839	0.14352502
42	0xbe6aca08	-0.22928631
43	0xbe302f24	-0.17205483
44	0x3d266f84	0.040633693
45	0x3e102ae5	0.14078863
46	0xbe3f02fe	-0.18653485
47	0x3e556536	0.2083939
48	0x3e48092b	0.19534747
49	0xbe64bb04	-0.22336966
50	0x3d870867	0.065933995
51	0x3e574fa0	0.21026468
52	0xbe69c465	-0.22828825
53	0xbe437d7e	-0.1909084
54	0x3d85e4c6	0.06537776
55	0x3cb881a9	0.022522764
56	0xbe00c67a	-0.12575713
57	0xbe646a4e	-0.22306177
58	0xbdda2967	-0.10652428
59	0x3e39bed4	0.18139201
60	0xbe48b1bf	-0.19599055
61	0x3d68d2a9	0.056841526
62	0x3e5b7ceb	0.21434371
63	0x3db40673	0.087902926
64	0x3de44789	0.11146457
65	0x3c7898b3	0.015173125
66	0x3e15e725	0.14638956
67	0xbda02145	-0.07818846
68	0xbe72ca89	-0.23710074
69	0x3d471e76	0.048613034
70	0x3e361a25	0.17783411
71	0xbda9fd92	-0.08300318
72	0xbe137750	-0.14400983
73	0xbddd766b	-0.10813602
74	0x3dae2426	0.085029885
75	0x3ccb6348	0.024827614
76	0xbd1e7faf	-0.038695987
77	0xbd95541f	-0.072914355
78	0xbe4bd75f	-0.19906376
79	0x3e848b64	0.25887597
80	0x3b2346db	0.002491406
81	0x3ded7efe	0.115964875
82	0xbc112dbc	-0.008861002
83	0x3e3ad7ad	0.18246336
84	0x3e19df8c	0.15026683
85	0xbe038f66	-0.12847671
86	0x3e75ac13	0.23991422
87	0x3e2725d2	0.16323021
88	0x3d12a8d8	0.035805553
89	0x3d77eec0	0.060530424
90	0xbe5bf1bc	-0.21478933
91	0xbd1a90ef	-0.037735876
92	0xbdbc0c4e	-0.091820344
93	0x3d847bb9	0.06468911
94	0xbe567d52	-0.20946243
95	0x3cc11563	0.023569768
96	0xbd34aca9	-0.044109974
97	0x3d467194	0.04844816
98	0xbd1908a8	-0.03736177
99	0xbd3a15de	-0.04543101
100	0x39cb5c48	0.00038787932
101	0x3e29d1ea	0.16583982
102	0xbe1db538	-0.1540116
103	0x3e87f937	0.26557323
104	0x3da03ae9	0.07823736
105	0x3e83a363	0.25710592
106	0x3e2b9d3e	0.16759202
107	0xbdfa37f0	-0.122177005
108	0xbcd8fecd	-0.026488686
109	0x3d899d96	0.0671951
110	0xbd8d64b3	-0.069039725
111	0x3d097aa3	0.03356422
112	0x3e5143ea	0.20436063
113	0x3cff05ce	0.031130698
114	0x3e82b60a	0.2552951
115	0x3d81f280	0.06345081
116	0xbdc25ce3	-0.09490373
117	0x3c0ed514	0.008717794
118	0x3db38572	0.08765687
119	0x3d81f9a2	0.06346442
120	0xbdae7d20	-0.085199594
121	0x3d160776	0.03662821
122	0x3e4cbeb8	0.19994628
123	0x3de0b230	0.109714866
124	0x3d3122d7	0.043246116
125	0xbd807fd1	-0.06274379
126	0xbd21ac45	-0.03947093
127	0xbda617ac	-0.08109984
128	0x3d5b3515	0.05351742
129	0x3df9c6a7	0.12196093
130	0xbe285831	-0.16439892
131	0xbdd79c86	-0.10527901
132	0xbd86e1ae	-0.06586014
133	0x3e79f11f	0.24408387
134	0xbe6b4c51	-0.22978331
135	0x3e7008b7	0.23440824
136	0xbd2897e4	-0.04116048
137	0xbe53f468	-0.20698702
138	0x3e45456e	0.19264767
139	0x3c9d173a	0.019176114
140	0xbe203444	-0.15644938
141	0xbe755090	-0.23956513
142	0x3b5bb323	0.0033523522
143	0xbe38d666	-0.18050537
144	0xbe82958e	-0.25504726
145	0xbdee666c	-0.11640629
146	0xbe059ac0	-0.13047314
147	0x3e223a0b	0.15842454
148	0x38de21e8	0.000105921004
149	0xbe82d3af	-0.25552127
150	0x3e006e48	0.12542069
151	0x3e0c5c06	0.13706979
152	0x3dba50ca	0.090974405
153	0xbe1a94a4	-0.15095764
154	0x3d71786e	0.05895274
155	0x3bf23287	0.0073912772
156	0x3cc4c407	0.024019254
157	0x3e39f599	0.18160094
158	0xbe487b2b	-0.19578235
159	0xbe7c56a0	-0.2464242
160	0x3d7f55fe	0.062337868
161	0x3e076161	0.13220741
162	0xbe7a3558	-0.24434412
163	0x3e0c92d5	0.13727887
164	0x3d8fe4a4	0.070260316
165	0xbe6febbc	-0.2342977
166	0xbcba1df0	-0.022719353
167	0x3e39f2d7	0.18159042
168	0x3cf78294	0.030213632
169	0xbe138bb4	-0.14408761
170	0x3e02e1ca	0.12781444
171	0xbd4e1170	-0.0503096
172	0xbe7329de	-0.2374644
173	0xbd3516b4	-0.044211105
174	0xbdcf282a	-0.101150826
175	0xbe4dab4a	-0.20084873
176	0xbd951720	-0.07279801
177	0xbd6917a5	-0.056907315
178	0x3e370f1e	0.1787686
179	0xbe3831e0	-0.17987776
180	0xbce9fd1a	-0.028563071
181	0xbdce5e30	-0.100765586
182	0x3e59070b	0.21194093
183	0xbe0083f0	-0.1255033
184	0xbdda13d6	-0.10648315
185	0x3e37e455	0.17958196
186	0x3d8536fa	0.065046266
187	0xbe3e50f0	-0.18585563
188	0x3de626b8	0.11237854
189	0xbd7142ee	-0.05890172
190	0x3e1a38ed	0.15060778
191	0x3e53b02a	0.2067267
192	0xbde70455	-0.11280123
193	0x3dfb07cc	0.122573465
194	0x3ce2edf2	0.027701352
195	0x3d098fc6	0.03358438
196	0xbdea4596	-0.11439054
197	0x3e518eb1	0.20464589
198	0xbe4595e5	-0.19295461
199	0xbd6ed0df	-0.058304664
200	0xbe472c35	-0.19450457
201	0xbe00f674	-0.12594014
202	0xbe00950b	-0.12556855
203	0xb9465480	-0.0001891423
204	0xbd932800	-0.07185364
205	0x3e10f081	0.14154245
206	0xbd3b4184	-0.045716777
207	0x3d10c12b	0.03534047
208	0xbe41f712	-0.18941906
209	0xbde4cc89	-0.111718245
210	0xbd3073fe	-0.04307937
211	0x3e236576	0.15956673
212	0xbde0ff02	-0.10986139
213	0xbd9c4853	-0.07630982
214	0xbd52721b	-0.05137835
215	0x3d925832	0.07145728
216	0xbe09f67b	-0.13472931
217	0x3dff7d90	0.12475121
218	0xbe4bb406	-0.19892892
219	0x3e6db24b	0.23212545
220	0xbd5b8b87	-0.05359986
221	0xbe6b4390	-0.22974992
222	0xbe14f85f	-0.14547871
223	0x3e3ac30e	0.1823847
224	0x3db99022	0.09060694
225	0xbe637b46	-0.22214994
226	0x3ccbbf6c	0.02487155
227	0xbe2c1fb9	-0.16808976
228	0xbe16ee9d	-0.14739461
229	0x3e3752cb	0.17902677
230	0x3e3c6daa	0.18401209
231	0x3d47fcd0	0.048825085
232	0xbde23916	-0.110460445
233	0x3d966b21	0.07344652
234	0x3e6683e2	0.22511247
235	0x3da99bad	0.08281646
236	0x3d43475b	0.04767547
237	0x3dd5d8e3	0.104417585
238	0xba433320	-0.0007446278
239	0xbb69a0d6	-0.0035648844
240	0x3d9e3eb7	0.07726806
241	0xbd00e4e1	-0.031468276
242	0xbd887110	-0.0666219
243	0x3e839b41	0.25704387
244	0x3ddd9f32	0.1082138
245	0xbe525872	-0.20541552
246	0xbe253f2c	-0.1613738
247	0xbe574e32	-0.21025923
248	0x3b3f470d	0.0029186637
249	0xbe403a87	-0.18772326
250	0xbe10ece3	-0.14152865
251	0x3e2b6676	0.16738304
252	0xbda85e48	-0.08221108
253	0xbd91c25e	-0.07117151
254	0x3d06a141	0.032868627
255	0xbcff0eac	-0.031134926

sequential_1/dense_1_2/Add/ReadVariableOp f4 [32]
0	0xbac4ae09	-0.001500548
1	0x3c1d9eed	0.00962041
2	0xb9e47ea4	-0.00043581903
3	0xbbabd9ad	-0.005244455
4	0x3c75b347	0.014996356
5	0xbcb8e7f9	-0.02257155
6	0x3baae967	0.005215812
7	0xbc31396a	-0.010816911
8	0xbb2931eb	-0.0025817107
9	0xbcd6e3de	-0.026231702
10	0x3d0e23f3	0.034702253
11	0xbc9c588d	-0.019085193
12	0xbc121ddb	-0.008918251
13	0x3bb103e3	0.0054020747
14	0xbbf9fe45	-0.0076291882
15	0x3c2ff377	0.010739199
16	0xbc05aa42	-0.008158268
17	0x3bba98e0	0.0056944937
18	0xbcb6051c	-0.022219233
19	0x3c8882bd	0.016663903
20	0x3ba5d406	0.0050606756
21	0x3c6bf488	0.0144015625
22	0x3bed03aa	0.007233103
23	0xbbe4d9b9	-0.0069839624
24	0x3c5dce46	0.013537949
25	0xbcc71876	-0.024303656
26	0x3c062126	0.008186614
27	0x3d081644	0.03322436
28	0x3ba2841a	0.0049595954
29	0xbc85f5ae	-0.0163525
30	0xbc82cbb9	-0.015966283
31	0x3b793143	0.0038023747

sequential_1/dense_1/Add/ReadVariableOp f4 [64]
0	0xbbd44aec	-0.006478658
1	0xbae59fbb	-0.0017518917
2	0x3b58fe5d	0.0033110597
3	0xbc5ca3fd	-0.013466832
4	0x3cc4c945	0.024021754
5	0xbcb03437	-0.021509273
6	0xbc27c592	-0.0102399755
7	0xbcc030e9	-0.023460822
8	0xba931bdf	-0.0011223516
9	0xbb20382b	-0.0024447541
10	0x3ccd0260	0.025025547
11	0x3bd965ba	0.006634441
12	0xbc17a410	-0.009255424
13	0x3c37bfb9	0.011215144
14	0x3d066ab5	0.032816608
15	0xbbf15049	-0.007364307
16	0xbc6c430c	-0.014420282
17	0xbbdbf28b	-0.006712263
18	0x3ca40060	0.02001971
19	0x3c81ef7e	0.01586127
20	0x3cdf517c	0.027260534
21	0xbc516428	-0.012780227
22	0x3c755f10	0.014976278
23	0x3b8e637b	0.004345355
24	0x3c5e1f8c	0.013557326
25	0x3c7cf2d8	0.015438758
26	0xbd0e5e47	-0.03475788
27	0x3b01ee6b	0.0019825946
28	0x3cff95ab	0.031199297
29	0x3bb67aa4	0.005568819
30	0xbbbda0f3	-0.005787009
31	0x3c00747c	0.007840272
32	0x3ccfa000	0.025344849
33	0xbc411bb8	-0.011786394
34	0x3c9df4e8	0.01928182
35	0xbc97c684	-0.018527277
36	0x3c32864e	0.010896279
37	0x3bdad0a2	0.006677703
38	0x3c1136fe	0.008863209
39	0xbc679b7d	-0.014136192
40	0x3c12ac07	0.008952147
41	0xbc75ae19	-0.014995121
42	0xbbbcfc45	-0.0057673776
43	0xbc2806a6	-0.010255491
44	0x3ba74d9b	0.005105687
45	0xbc470139	-0.012146288
46	0xbcdcf611	-0.026972802
47	0x3ad5509a	0.0016274631
48	0x3ccdd628	0.025126532
49	0xbc347925	-0.011015211
50	0xbac42dfe	-0.001496732
51	0xbb818b2a	-0.003953357
52	0x3d149acd	0.036280442
53	0xbbed5058	-0.0072422437
54	0xbc53375c	-0.012891617
55	0xbb82816d	-0.003982714
56	0xbb88c8ec	-0.0041743424
57	0x3b3bcb51	0.0028655122
58	0x3bbac0c6	0.00569925
59	0xbbcd8d99	-0.0062729833
60	0xbc6f8dca	-0.0146212075
61	0x3c9e46ef	0.019320933
62	0xbc1418d7	-0.009039125
63	0xbab6baee	-0.0013941207

sequential_1/dense_1/MatMul f4 [64, 12]
0	0xbdf497f9	-0.11943049
1	0xbdb93224	-0.09042767
2	0x3d276af9	0.0408735
3	0xbe0bb9b1	-0.13645054
4	0xbe1891d2	-0.14899376
5	0xbe2513b5	-0.16120799
6	0xbd61a163	-0.05508555
7	0xbe6682a3	-0.22510771
8	0x3e703fad	0.2346179
9	0x3e8b2e75	0.2718388
10	0x3def955b	0.11698409
11	0xbe373a06	-0.17893228
12	0x3d862dfa	0.06551738
13	0xbd1c9a4f	-0.038233098
14	0x3e2e6bd2	0.17033318
15	0x3e888396	0.26662892
16	0x3e2ebee0	0.17065
17	0x3e4978c6	0.19674978
18	0x3e451f65	0.19250257
19	0x3e7a3308	0.2443353
20	0xbd93c22e	-0.07214771
21	0xbd25bf0f	-0.04046541
22	0x3e59535a	0.21223202
23	0xbde5f372	-0.11228074
24	0xbe9993b0	-0.2999549
25	0x3ddb996b	0.107226215
26	0xbac0e3ae	-0.0014716291
27	0x3e7f94ac	0.24959058
28	0xbe5b3cb0	-0.21409869
29	0xbe6e587c	-0.23275942
30	0xbbbb25ce	-0.005711294
31	0x3dc301aa	0.09521802
32	0x3de1f644	0.110332996
33	0x3e63303a	0.22186366
34	0xbe26fa60	-0.16306448
35	0x3e7265ae	0.236716
36	0xbe82356f	-0.25431392
37	0xbdf13881	-0.117783554
38	0x3e0cdf1c	0.13756984
39	0xbe3a0901	-0.18167497
40	0xbe0b0b8d	-0.13578625
41	0xbd8f3478	-0.069924295
42	0xbe40d861	-0.18832542
43	0x3ddf6a79	0.1090898
44	0xbe79a5f0	-0.24379706
45	0xbe5a125d	-0.21296068
46	0xbe248eeb	-0.16070144
47	0xbe7c4d76	-0.24638924
48	0x3e882262	0.26588732
49	0xbd8de281	-0.06927968
50	0xbe1d1129	-0.15338577
51	0x3dcccf9b	0.10000535
52	0xbd2c294c	-0.04203157
53	0xbe49bc0d	-0.19700642
54	0x3e334bdd	0.17509408
55	0xbcdabb6b	-0.026700696
56	0xbcea0a26	-0.028569292
57	0x3d9f42f1	0.0777644
58	0xbe811d62	-0.2521773
59	0x3df365e2	0.11884667
60	0xbe7c5d6c	-0.24645013
61	0x3e009bf9	0.12559499
62	0x3e1fb3ef	0.15595983
63	0xbe7f8ab5	-0.24955256
64	0xbd3e195d	-0.046410907
65	0xbe66ae09	-0.22527327
66	0x3e8f9344	0.28042042
67	0x3e08a500	0.13344193
68	0xbd98f87a	-0.07469268
69	0xbe0b45e0	-0.13600874
70	0xbd038cc5	-0.03211667
71	0xbd2dc728	-0.04242626
72	0x3d3be9e0	0.045877337
73	0xbdf7225c	-0.120671004
74	0xbd093398	-0.03349647
75	0xbde4d1ca	-0.111728266
76	0x3e354f47	0.17706023
77	0x3c951a5b	0.018201044
78	0x3e2ace83	0.1668034
79	0xbd6ddfdc	-0.058074817
80	0x3e46e2e5	0.19422491
81	0x3de02802	0.10945131
82	0xbe41c567	-0.1892296
83	0xbe6aa2a6	-0.22913608
84	0xbd440be2	-0.047862895
85	0x3e6f4c52	0.23368958
86	0x3e85780a	0.26068145
87	0x3e6f2ae1	0.23356201
88	0x3c4cfecc	0.01251192
89	0x3c57f01c	0.013179805
90	0xbdb0baec	-0.086294025
91	0x3e5551d6	0.20831999
92	0x3e4c28f8	0.19937503
93	0xbbbb25b4	-0.0057112817
94	0x3e2be0e1	0.16785003
95	0xbc31ef20	-0.0108602345
96	0xbdc03879	-0.09385771
97	0x3e2af322	0.1669431
98	0x3e106fa7	0.14105092
99	0x3e820f31	0.25402215
100	0x3cfd4bf5	0.030920008
101	0xbe86d360	-0.2633314
102	0x3d5c533a	0.05379031
103	0x3d4a3975	0.0493712
104	0xbe33aee2	-0.17547181
105	0xbcfd57a8	-0.030925587
106	0x3e872b58	0.26400256
107	0xbdb9b195	-0.09067074
108	0xbe1096a2	-0.14119962
109	0xbe23b784	-0.15987974
110	0xbe470cb1	-0.19438435
111	0xbe191b8d	-0.14951916
112	0xbdb1cc6f	-0.08681571
113	0xbdc72c89	-0.09725291
114	0x3df9f44b	0.12204798
115	0x3e55765c	0.20845932
116	0xbe4bbb3e	-0.19895646
117	0x3e777f04	0.24169546
118	0x3c437a2f	0.011930986
119	0x3ddc491c	0.10756132
120	0xbe29cc7d	-0.16581912
121	0x3d8aba33	0.06773796
122	0x3dd3f627	0.10349684
123	0x3e804821	0.2505503
124	0xbc0159b2	-0.00789492
125	0xbe24f0c2	-0.16107467
126	0x3c126221	0.008934529
127	0xbe11dd73	-0.14244632
128	0xbdbc6279	-0.0919847
129	0x3dc39464	0.09549788
130	0x3d93aef0	0.07211101
131	0xbe961e79	-0.29320124
132	0xbe99781c	-0.2997445
133	0xbe766e5c	-0.24065536
134	0x3e6013bc	0.21882528
135	0x3dabfa06	0.083972976
136	0xbdc9e429	-0.09857971
137	0x3d004224	0.031313077
138	0x3e0c0fd0	0.13677907
139	0x3e730ab7	0.23734556
140	0xbc607ee5	-0.013702129
141	0xbe89dfb0	-0.26928473
142	0x3e0dbb72	0.13841036
143	0xbe98c5dd	-0.29838458
144	0xbdbafbe7	-0.09130078
145	0x3e415dcb	0.18883435
146	0x3e471157	0.19440208
147	0x3dd74e5d	0.105129935
148	0x3e8625ac	0.26200616
149	0xbe7193db	-0.23591559
150	0xbdcc4e5d	-0.09975884
151	0xbd98e52f	-0.07465588
152	0xbe6af274	-0.22944051
153	0x3e3b759a	0.1830658
154	0x3d912894	0.07087818
155	0xbdeb3cef	-0.114862315
156	0xbde0bb8b	-0.10973271
157	0x3e96a983	0.29426202
158	0xbe4d0071	-0.200197
159	0xbd979612	-0.074016705
160	0x3e0a3f46	0.135007
161	0x3e43c4ae	0.19117996
162	0xbbbf8bc2	-0.005845518
163	0xbd7d1bb8	-0.061794013
164	0xbe1586d7	-0.14602219
165	0x3d7e6d98	0.062116235
166	0x3e953041	0.29138377
167	0x3e605b3d	0.21909805
168	0xbdb45007	-0.088043265
169	0x3df811e3	0.121127866
170	0x3c1d99e8	0.009619214
171	0x3e33fdea	0.1757733
172	0x3be1e802	0.0068941126
173	0x3d631844	0.055443063
174	0x3e9d0858	0.30670428
175	0x3e867328	0.26259732
176	0x3e087aae	0.13328049
177	0x3da28ede	0.07937406
178	0xbe010816	-0.12600741
179	0x3e77ad31	0.24187161
180	0x3d8f0218	0.06982821
181	0xbe371185	-0.17877777
182	0x3dc3ca2c	0.095600456
183	0xbde62889	-0.112382
184	0xbe953ee6	-0.2914955
185	0xbdbe0f98	-0.09280318
186	0xbd807013	-0.062713765
187	0x3e30b2f2	0.17255762
188	0x3e024000	0.12719727
189	0xbda4707d	-0.08029268
190	0x3e8b3c38	0.2719438
191	0xbe63ddb7	-0.22252546
192	0xbd9ca394	-0.076483876
193	0x3e5cc3d0	0.21559072
194	0x3db48bc3	0.0881572
195	0x3e6dad86	0.23210725
196	0x3d6d19fb	0.057886105
197	0xbe00d46f	-0.12581037
198	0x3e2ad18e	0.16681501
199	0x3e725322	0.23664525
200	0x3e90c455	0.2827479
201	0x3e243deb	0.16039245
202	0x3e553d6e	0.20824215
203	0x3df8f885	0.12156776
204	0x3dd8bcd8	0.10582894
205	0x3e682b96	0.22672877
206	0xbe994ce9	-0.2994149
207	0xbcfcc532	-0.030855749
208	0x3d0fab51	0.03507549
209	0xbe185429	-0.14875855
210	0x3de99e82	0.11407186
211	0xbe46d829	-0.19418396
212	0x3e1ece99	0.15508498
213	0x3e434cb0	0.19072223
214	0x3dc12f1d	0.09432814
215	0xbe2851e4	-0.16437489
216	0x3e3deb29	0.18546738
217	0xbd90d297	-0.07071417
218	0x3e836930	0.2566619
219	0xbe615d94	-0.22008353
220	0x3e727cb0	0.23680377
221	0xbe1891b9	-0.14899339
222	0xbddbff71	-0.10742081
223	0xbe8a8738	-0.2705629
224	0x3e07493a	0.13211527
225	0xbe7fb067	-0.24969636
226	0xbd91998b	-0.07109364
227	0xbe2c46a3	-0.16823821
228	0x3e73ca25	0.23807581
229	0xbce22af1	-0.027608367
230	0x3e553def	0.20824407
231	0xbd4d8d62	-0.05018366
232	0x3e8e44f5	0.27786985
233	0xbe6386e5	-0.22219427
234	0xbe959311	-0.29213765
235	0x3e376082	0.17907909
236	0x3e027151	0.1273854
237	0x3e974095	0.2954146
238	0x3d3bd409	0.04585651
239	0x3d476778	0.04868266
240	0x3dc03b3d	0.09386299
241	0xbd825a7c	-0.06364915
242	0xbe9dd50e	-0.3082661
243	0xbe85c0a4	-0.26123536
244	0x3e643b60	0.22288275
245	0xbe68fa0d	-0.22751637
246	0xbe0a0d5e	-0.13481662
247	0x3dda605b	0.106629096
248	0xbd22e41d	-0.039768327
249	0x3e49f9fb	0.19724266
250	0x3dceadd3	0.10091748
251	0xbe8c6ae7	-0.2742531
252	0x3e849697	0.2589614
253	0x3e921534	0.28531802
254	0x3e66ea16	0.22550234
255	0x3ccda8ef	0.025104968
